checkpoint.pth (torch_old, 28391 bytes, 6 tensors)

fc1.weight f4 [64, 37]
00000000: 49ed f63d 6a96 f0bc 9f89 43be 24ff 05bd
00000010: ba8d 93be 68d3 4f3e d014 56be 3adc b43d
00000020: 5259 30be 4b33 20bf 922f 89bc 8b7b ccbd
00000030: e387 e9bd 7eff 26bd d0fb fc3d 3308 733c
00000040: 6473 173c c91d cb3d 6caa 0c3c 6211 46bc
00000050: 67c6 31bc ca17 6a3d 730c 433d 40dd 5f3e
00000060: aaf0 debc 1aa2 55bc 5efd 9e3d 3073 0abe
00000070: 6608 e83d ae9a 07be adc9 54bd eafd 563e
00000080: 04d4 cabc 829c fdbd 0306 5abe ac78 a8bd
00000090: 7d8d 71bd ffe1 f93d a8e9 a43d 4c1d 423d
000000a0: f08f f83c 1792 7cbe 0075 533d 5be4 94be
000000b0: 59e3 81bd b83d 3dbe 42fe 73bf 04b0 8dbc
000000c0: a3ef 2bbd 6b91 8e3d 6097 083e b5e4 3e3e
000000d0: 0e8c 1a3e ef48 063d 7cfe 2a3d 8744 34be
000000e0: 96ac 6c3d 0dc5 81bd 7bae f9bd 0b1a b9bd
000000f0: cb97 f7bc 9fc9 093e 11b8 0abc c9cd ec3c
00000100: 011c 273c ff74 febd 1b94 8bbd a7b7 033d
00000110: 71a7 b13d 8df4 263e 50ee 33be 1b88 383e
00000120: 6c3c 113b 3104 923b 8196 12bc 65c1 6f3e
00000130: e5dd b23d da34 b0bd ec36 44be bedf 99be
00000140: 1f6c c13d 785b 173e 627d 773e 85a9 a5be
00000150: 077a 093d bf4d e3bc f2c8 9b3d cf75 9cbe
00000160: 0ee3 e3bc 232c 32be 19cb 123d f71d 073e
00000170: c3b1 253e a7c6 afbe ad3f bf3d dd3f 02be
00000180: 7ba5 abbd 9c39 243c 3abe a8bc 8dc2 a6bd
00000190: ceff 19bd 0f71 a13e c027 b0be f103 f03d
000001a0: c2c9 cdbe e931 10bd ba66 ac3d 02e4 ffbd
000001b0: 3361 b83c 8efa 6d3b 52ce 373a 0ec0 5bbd
000001c0: e748 073e 661a 6d3e 8a3a 4abd 5978 99be
000001d0: 2724 973c d0ca 98bb 0be6 6e3d 7faa 973d
000001e0: 5d1a 323e 1b8b ec3c ebd5 88bd 8108 fe3c
000001f0: f798 8dbe 92bf dcbd 2d3e 27be 1e59 b2be
00000200: 603c da3d 64c1 32bd 380e 68be 4aef febd
00000210: 1e28 e2bd 8aa8 5f3c 8106 363e a3a4 1d3e
00000220: 7fe0 bbbd 5130 c1bc 03d5 343d eafb 503e
00000230: 2640 d53e d064 803e f4c1 8ebe 22d1 7bbe
00000240: 556a 31be 6d17 9fbf b670 723d e146 863b
00000250: 1ba1 e4bd e607 04be fdea 43bd b9c4 8bbd
00000260: ccee 7e3d 2255 b43e e18b bcbe 9ea4 0dbf
00000270: c4dd bfbe 1283 ccbf 1ac2 aebd 5682 8f3c
00000280: 4864 0fbe 94dc ae3d d7f7 05be dc6b 30be
00000290: 883e 423d 551f 513d 1f4e d13d c488 493e
000002a0: 219a 48be 4e8e a23c b894 a13d 1bd1 173e
000002b0: c886 823e 031a 19bd 3b86 edbc 70f0 e43d
000002c0: b3a0 303e c0d0 893e f4ea 3a3e e312 bcbd
000002d0: 8012 bf3c 4b96 543c ac15 99bc 67f2 d2bc
000002e0: 694a b33b c8f8 953d d069 9c3c 2173 dbbb
000002f0: 2a15 693d 58d1 033e 0989 e33e 15f3 e3be
00000300: 62a6 10bf 3e73 3fbe 9c48 d3bf 3e69 f8bc
00000310: 0656 4abd 1ed6 773d 258f aabc 7175 3a3e
00000320: affb e83d 3a6e 3c3d 7a2f 8cbd 9ead 603d
00000330: e4a2 c9bd 3862 ea3d 6cae 293e 8269 123e
00000340: 89ce 3c3d 0432 a33d 828a 5d3d ddb6 793c
00000350: 0883 7cbb e580 bf3d b5a0 b33d 0826 b93d
00000360: e133 c73c 2fb1 06bd 287e e23c 459c c9bd
00000370: f810 89bb ff48 413c 06da 9f3e 2ad6 96be
00000380: d0ce cdbe 609b 97be 530a edbf 89b0 98bd
00000390: b41c 1fbd af02 e8bc fc2c 933d a521 3b3e
000003a0: 104b 603d 87b6 d03d 9b29 e03d 7235 b23d
000003b0: 121c 5ebc bebe b0be 45fe fc3d c322 0f3d
000003c0: a146 1b3e c527 863e 9030 15bd 40c7 c6bc
000003d0: da5d 013d 30e3 b2bb b8fa b03d 80ea 14be
000003e0: 5057 0abc 5d0f 493d 7360 33bd af22 413d
000003f0: 61df dd3c 94a7 4b3d b8cd 4abd f5b8 083d
0.12056977 -0.029368598 -0.19095467 -0.032714024 -0.28819066 0.20295489 -0.20906377 0.088310674
-0.17221573 -0.62578267 -0.016746316 -0.099845015 -0.114028715 -0.040771 0.12352717 0.014833498
0.00924382 0.099177904 0.008585554 -0.012089105 -0.010850525 0.057151593 0.047619294 0.21861744
-0.027214367 -0.013039136 0.0776317 -0.13520503 0.11329727 -0.132426 -0.051950146 0.20995298
-0.0247593 -0.12383367 -0.21291356 -0.08226141 -0.058972824 0.122013085 0.08052379 0.04739122
0.030342072 -0.24665104 0.05162525 -0.2908047 -0.06342191 -0.18480575 -0.9530984 -0.017295845
-0.041976582 0.0696133 0.13338995 0.18641932 0.15092489 0.0327844 0.0417466 -0.17604266
0.05778178 -0.063364126 -0.12191483 -0.090381704 -0.030223748 0.13455819 -0.008466736 0.02890672
0.010199548 -0.12424659 -0.06815358 0.032157566 0.08674515 0.16304226 -0.17571378 0.1802067
0.0022161258 0.004456066 -0.008947016 0.23413618 0.08733729 -0.08603831 -0.19161576 -0.30053514
0.094444506 0.14780986 0.24168923 -0.32355896 0.03356364 -0.027747033 0.07606687 -0.3055863
-0.027818229 -0.1739965 0.03583822 0.13195024 0.16181092 -0.34331247 0.09338317 -0.12719674
-0.08381172 0.010023501 -0.02059852 -0.08142576 -0.03759747 0.3153157 -0.34405327 0.11719502
-0.40192991 -0.035203848 0.08418031 -0.12494661 0.022507286 0.0036312672 0.000701164 -0.053649954
0.13211404 0.23154601 -0.049372233 -0.2997463 0.018449856 -0.004662849 0.058324855 0.074055664
0.1739287 0.028874924 -0.066814266 0.031009914 -0.27655765 -0.10778727 -0.16332312 -0.34833616
0.10656047 -0.043641463 -0.22661674 -0.124479845 -0.11042808 0.013651023 0.17775919 0.15394835
-0.091736786 -0.02358261 0.044148456 0.20408598 0.41650504 0.25076914 -0.2788235 -0.24591497
-0.17325719 -1.2429024 0.05918952 0.004097805 -0.11163541 -0.12893638 -0.047831524 -0.06824631
0.062239453 0.352212 -0.3682547 -0.5532931 -0.3747388 -1.59775 -0.08533116 0.017518204
-0.14003098 0.08538166 -0.13082825 -0.17228645 0.047422916 0.05105527 0.102199785 0.19681078
-0.19590046 0.019843247 0.07889694 0.14825861 0.25493455 -0.037378322 -0.02899467 0.11178672
0.17248802 0.26917076 0.1825369 -0.0918329 0.023324251 0.012975286 -0.018687092 -0.025750352
0.005471517 0.07322842 0.019093424 -0.006697074 0.05690495 0.12872827 0.44440487 -0.44521394
-0.5650388 -0.18696305 -1.6506534 -0.03032362 -0.049398445 0.060506932 -0.02082021 0.18208863
0.1137613 0.046003558 -0.06844993 0.054853074 -0.09845522 0.11444515 0.16570443 0.1429806
0.046095405 0.07968524 0.05408717 0.015241352 -0.003853025 0.093507566 0.08770887 0.09040457
0.02431673 -0.03288382 0.027648047 -0.09844259 -0.004182931 0.011797189 0.31221026 -0.2946027
-0.40196848 -0.2961073 -1.8518776 -0.074555464 -0.038845733 -0.028321592 0.071863145 0.18274553
0.054759085 0.10191064 0.109454356 0.087016 -0.013556497 -0.34520525 0.123531856 0.03494526
0.15163662 0.26202217 -0.036423266 -0.024264932 0.031583644 -0.0054592118 0.08641571 -0.1454258
-0.0084436685 0.049086917 -0.043793153 0.047152217 0.027084054 0.04972036 -0.049512595 0.033379514

fc1.bias f4 [64]
00000000: 7ea0 e13d dfac 12bd 2508 01be 8864 0abd
00000010: 3bef 5e3e 0b65 f93c cb47 b5bc a09f 663d
00000020: 19fb 39bc 06c1 6ebe 6b64 393e c127 4d3e
00000030: 8da7 243e 5661 cc3d 3714 89bd 63fb d4bd
00000040: c5db 00bc 28b4 8bbd c734 053c e4bf 4dbe
00000050: 5db4 edbd e48f d03c a6fa 603d fa77 07be
00000060: 6cb1 1dbe 6cd9 f53d 88b4 bbbc 5002 4fbe
00000070: 24d6 073e 4efc e03d ba53 ef3c 814b 45be
00000080: 0084 1a3e 535f 33bc 9ab9 0ebe 7c17 f03c
00000090: b68b 663b 0122 103d 34bd bdbc 907e 1bbe
000000a0: 196b dcbd b1af 3ebb efcb 43bc 4965 0c3e
000000b0: 16ba d63c 8582 b0bd e01c 023e ecbe 24be
000000c0: 776b 80bd 6f4d 5a3d 9904 29be 38a3 803c
000000d0: b6f9 ed3a bfca 07be 31fc 1bbe 1cf3 c8bc
000000e0: 5880 4f3e 5f15 e7bc fa4d f3bd 819a dcbd
000000f0: e9e1 fc37 c53f 513d e396 5b3c 62c5 303d
0.110169396 -0.035809394 -0.12600763 -0.03378728 0.21770947 0.030443689 -0.02212896 0.056304574
-0.01135137 -0.2331582 0.18104713 0.20034696 0.1607954 0.09979503 -0.06693309 -0.10399511
-0.007864897 -0.068214715 0.008130259 -0.20092732 -0.11606667 0.025459237 0.054926537 -0.13229361
-0.15399712 0.120043606 -0.022913232 -0.20215726 0.13265282 0.10985623 0.029214729 -0.19267084
0.15089417 -0.01094802 -0.13937989 0.029308073 0.003517849 0.03518868 -0.023161508 -0.15184999
-0.10762615 -0.002909642 -0.011950477 0.13710512 0.02621178 -0.086186446 0.12706327 -0.16088456
-0.06270497 0.053296503 -0.1650566 0.015702829 0.0018156085 -0.13260935 -0.15232922 -0.024529986
0.20263803 -0.028208433 -0.11880107 -0.10771657 3.0145939e-05 0.051086206 0.013402673 0.04315699

fc2.weight f4 [64, 64]
00000000: 982c 02be f385 bfbb 34bf fcbd 59c5 21bc
00000010: 2652 58be 1115 4fbe 1c4f e0bd 059f 18bd
00000020: a2ac 703d 86c8 e13d 0a29 bb3d 5c3d bc3d
00000030: 176e 30be 9f99 a53e e297 08be db8f ad3c
00000040: 2024 04be d505 78bd 1196 7cbd 5bb3 da3c
00000050: fc9a e5bd 1099 473e 02cf fe3d 87af 5c3d
00000060: 5cfb c3be 99cc 05bd 8120 4fbe a374 ccbd
00000070: a5f7 f2bc c208 7fbd db0d cc3d 3b1f 37bd
00000080: c0b2 7d3e d370 d2bc 7a10 6bbe 21a6 59be
00000090: 2ac6 8bbe bd74 5bbe f139 b2be e2e6 b5be
000000a0: 872c 3cbe 684e 21be adae 5ebe 068e 463e
000000b0: 76b9 c0bd db9a 1cbe 6fff 54be 5db4 5d3d
000000c0: ec19 22be 48dd 19be 8f95 3d3d 754c b5bc
000000d0: 8458 b8bd f22d b0bd 3e8b 9d3d 9060 cfbd
000000e0: df79 60be 988b d6be 4510 2abe 0e0f 95bc
000000f0: 4e30 c73e 37b3 f23e bfd9 88be 42ad d33d
00000100: ec20 89bd 8868 1e3e 8a59 cc3d 0aaf de3c
00000110: 7a45 753e a238 7b3e 89e0 0abe 8236 9d3c
00000120: d1c7 43bd f843 53bd 6c96 84be 0b23 983d
00000130: 84cd 9abe 1ec3 37bd d66d 05be 85e5 e83d
00000140: 8766 803c b777 243d 5632 87be b945 adbd
00000150: ba05 d03d bde7 623d efdd 77bd fb1a 11bd
00000160: 3662 2e3e 5b27 e6bd eb61 f13c ed80 59bd
00000170: 70aa 163e e40d 4fbe 7b08 f1bd 058f acbc
00000180: dac3 1abe 2b5e 1b3e d2c0 07be f5b0 e2bd
00000190: e4f9 2f3e 7636 99be 5cdd 3bbe dbc8 46be
000001a0: 1d40 51bc cf76 953e 2330 22be c0ef 6fbe
000001b0: de0a d83d 688d 87bd 0dbb 1abe 3cc7 4ebe
000001c0: 243c d8bc e6fa e6bb c17f 11be 598c bb3b
000001d0: e047 92bc 1c17 acbe 746a d6bd c292 c7bd
000001e0: 2b0e 233e a46e 6abd d4d9 0dbd 0163 853c
000001f0: 2afa 42be 8b4d ecbc 95c0 dfbd 6d95 2cbe
00000200: ce21 d2bd 2fd1 24be e7d6 c93d 376e c8bd
00000210: af25 ccbc 8cbe 02be 7beb fabd f7d8 9e3c
00000220: 2ca1 573d 0445 0dbe d885 be3d 3f4e 8cbe
00000230: 8362 1f3f 0937 103c b8f9 2cbd c0c9 a13d
00000240: d5c4 23bd ad63 043d 9a3e 613c b12e a1bd
00000250: 78c9 433d fd05 c43b 4235 e9bd eeae 183e
00000260: 749f 6dbe 42b5 303d 45e5 873e dbd7 20bd
00000270: 4dc0 2bbe 22b3 553e b26c 833e 264f 28bc
00000280: 2ecb 5ebd 228c b3bd f914 7dbd 14ac c7bc
00000290: 8f3b f8bc 66ab 42be 6cef b53e 5b33 09bd
000002a0: 2555 d03d f424 d4be 6174 28bd 5f16 cfbd
000002b0: 06f8 8d3d 2b02 b43d 8e1d 9d3d 2b81 1bbd
000002c0: 336a ad3b c124 afbd 5497 093e f62c dcbc
000002d0: 61bc c93c fdc1 543e f8d8 8ebd c909 d33d
000002e0: 7e22 eebd f0e6 cebd e250 363e 0384 8d3e
000002f0: 323f 50be b873 6dbd 640a 703d cec5 9dbc
00000300: 6e94 5abd 3116 3fbe 9308 153e 50d5 b0bd
00000310: fe5b 35be 2b1b 79bd 725d 6dbe de16 f9bd
00000320: f7f9 d0bd d0dc a5bd c511 403d 45d4 1bbd
00000330: 1dc2 3ebf 50ed 523d 98eb ef3b c687 5dbe
00000340: 2159 bf3c 1703 1e3e 137a fdbd 644d 03be
00000350: 10d5 be3b aace 9c3d 2e2f 88bd 0369 693e
00000360: c96a 57be 2050 fc3c 70ea 493e 58c3 833d
00000370: 8c51 dd3d c12c aabe 5ae7 013f b95b fdba
00000380: f9ab cdbd cdd6 683d e374 de3c 4c0e f23c
00000390: 6800 d5bd 012c e8be c055 303f c0c0 c0bc
000003a0: 4134 c83d a505 523d 1d77 013e 9a0f 3ebd
000003b0: d983 873d d3c5 033e 970b 833d fe7b 843d
000003c0: c9ad fe3d bae6 90bc d7be 1fbe cd25 6d3d
000003d0: e82a 503d 0610 0b3e 2cfe c7bd 6b0e 0d3e
000003e0: 1ab0 2ebe 08e8 fbbd a462 01be 9260 483e
000003f0: 5d02 bdbd 5e25 94bd 59f1 36bd e608 54bc
-0.12712324 -0.0058448254 -0.123411566 -0.0098737115 -0.21125087 -0.2022288 -0.10952589 -0.037261028
0.058758385 0.11024575 0.09138687 0.09191391 -0.17229496 0.32343766 -0.13339189 0.02118676
-0.12904406 -0.060552437 -0.061666552 0.026696851 -0.112112015 0.19491982 0.12441827 0.053878333
-0.3827771 -0.032665823 -0.20227243 -0.09983184 -0.029659102 -0.06226421 0.0996358 -0.044707518
0.24775219 -0.025688564 -0.22955504 -0.2125478 -0.27299625 -0.21431251 -0.3480983 -0.35527712
-0.18376361 -0.15752566 -0.21746321 0.19390115 -0.09410374 -0.15293448 -0.20800565 0.054127086
-0.15830201 -0.15025818 0.04628521 -0.022131184 -0.09001258 -0.086025134 0.07692574 -0.1012584
-0.2192149 -0.41903377 -0.16607769 -0.018195655 0.3890404 0.47402355 -0.26728627 0.10335781
-0.066957325 0.15469563 0.09978016 0.027183075 0.23952284 0.24533322 -0.13562216 0.01919103
-0.04779798 -0.051578492 -0.25896013 0.07428559 -0.3023492 -0.044863813 -0.1303018 0.113719024
0.015673889 0.04015323 -0.2640559 -0.08460564 0.10157342 0.055396784 -0.060514387 -0.03542612
0.17029652 -0.11237975 0.029465636 -0.05310147 0.14713454 -0.20220143 -0.11769196 -0.02106429
-0.15113774 0.15172641 -0.13257149 -0.11068908 0.1718517 -0.29924363 -0.1834616 -0.19412558
-0.012771633 0.29192206 -0.15838675 -0.23431301 0.10548948 -0.06618768 -0.15110417 -0.2019319
-0.026395865 -0.0070489524 -0.1420889 0.005723518 -0.017856538 -0.3361138 -0.10469523 -0.09744789
0.15923373 -0.05723442 -0.034631565 0.01628256 -0.19040743 -0.02884557 -0.10925404 -0.16853876
-0.10260354 -0.16095422 0.098554425 -0.09786647 -0.024920313 -0.12768 -0.122519456 0.019390566
0.05264394 -0.13795859 0.093028724 -0.27403447 0.6225969 0.008802184 -0.042230338 0.07899809
-0.039982636 0.03232162 0.0137478355 -0.07870234 0.047799557 0.005982159 -0.11387111 0.1491048
-0.23205358 0.04314161 0.26542106 -0.039268356 -0.16772576 0.20869115 0.25668865 -0.010272777
-0.054392986 -0.087669626 -0.06178758 -0.024374045 -0.030301837 -0.19010696 0.35534227 -0.033496242
0.1017249 -0.41434443 -0.041126613 -0.10111689 0.06932072 0.08789476 0.07671653 -0.03796498
0.005292201 -0.08551932 0.13436633 -0.026876908 0.024625959 0.20777126 -0.06974977 0.10304601
-0.116276726 -0.101026416 0.17804292 0.2763978 -0.20336607 -0.057971686 0.05860366 -0.01925936
-0.05336421 -0.18660809 0.14554052 -0.08634436 -0.17710873 -0.060816925 -0.23180178 -0.12162565
-0.10203927 -0.08098757 0.046891946 -0.038044233 -0.74514943 0.05149585 0.007321786 -0.21633825
0.02335793 0.15430866 -0.123767994 -0.12822491 0.005823739 0.076566055 -0.06649624 0.22793965
-0.21036829 0.030799925 0.19718337 0.06433743 0.108065695 -0.3323727 0.5074364 -0.0019329704
-0.10042567 0.056845475 0.027155345 0.029547833 -0.10400468 -0.45346072 0.68880844 -0.02352941
0.09775592 0.051274914 0.12643094 -0.046401598 0.06616945 0.12868433 0.06398695 0.06468962
0.12435491 -0.017688144 -0.15600143 0.057897378 0.05082217 0.13580331 -0.09765276 0.13775031
-0.17059365 -0.12300116 -0.12635285 0.19568089 -0.092289664 -0.0723369 -0.04466376 -0.012941575

fc2.bias f4 [64]
00000000: 3567 34bd 39be b1bd 055a c23d 511d 1b3d
00000010: fee6 0d3e 2908 97bd 1154 b3bd 80db 8abd
00000020: 8a5c d03d 6dd4 e93e 173b c33b fc5b 5d3e
00000030: 2bae 6b3e 174b bbbc f8ee a2bc 2aea 2e3e
00000040: 94e9 803c eafa 933d 8623 ebbc aebb ff3d
00000050: b065 1d3e 51ea da3e e9a2 0fbe 3af5 b1bd
00000060: d32a 1dbe 30ec 66be 6e24 983d 04dc fc3c
00000070: 8789 223e ff54 993e 4cd3 1bbd 6d44 86bc
00000080: f44a 8fbd 36ca 993d fe98 ea3d 2f29 8d3d
00000090: e450 f6bd 4025 20bd 2b90 163e 2262 103d
000000a0: 1723 18be 5055 053f d5c8 bb3e 1c03 9dbd
000000b0: b658 a43d 07a8 76bd f050 313e 5217 19be
000000c0: c993 7b3c 44a8 923b ff35 ddbd 4cc6 ce3e
000000d0: 715e 603c b850 2abd 52a8 b13e 7f6f 9dbd
000000e0: e027 63be 2ea6 28be bc55 e8bc 56ff 3dbe
000000f0: 4054 d3ba c5b8 a93e cc14 d43d a7f4 4fbe
-0.04404374 -0.0867886 0.09489826 0.037869755 0.13857648 -0.07374603 -0.08756269 -0.067801476
0.101739004 0.4566988 0.005957972 0.2161712 0.23015659 -0.022862954 -0.01988934 0.17081514
0.015736379 0.072255924 -0.028703462 0.12486969 0.15370822 0.42756894 -0.14026989 -0.086893514
-0.15348367 -0.22551036 0.074288234 0.03086663 0.15872775 0.2994766 -0.038043305 -0.01639005
-0.06996718 0.07509272 0.11454962 0.06892621 -0.120271474 -0.039098024 0.14703433 0.035249837
-0.14857136 0.520833 0.3667666 -0.07666609 0.08024733 -0.060218837 0.17316031 -0.14950302
0.015355059 0.004475625 -0.108013146 0.40385664 0.013694392 -0.041580886 0.3469873 -0.07687282
-0.2218318 -0.16469643 -0.028361194 -0.18554434 -0.0016123131 0.3314878 0.10355529 -0.20308171

fc3.weight f4 [4, 64]
00000000: b76c 223f e003 973d ac13 e73d 3628 b83e
00000010: 59af 1c3e dc82 fab7 a4ff 8cbd 60a2 57be
00000020: 70ee 843e 1445 0d3e d72c ecbe 6d58 aa3e
00000030: ff28 f83d 430d 833d 502d 4a3d a0a9 9b3d
00000040: d09e a43c b1fe b33e cb6d 2e3e 8f77 4c3e
00000050: d9ba ed3d f115 873e 9c3b 53be 203e 0fbe
00000060: 9e00 a53c d550 41be 0a7a 963d 6868 72bd
00000070: 2a4e 1c3e 473d f43d 490f 9ebe ae93 f53d
00000080: 7bff 893e c44c 6d3e 3862 103e cf02 a7bc
00000090: bff1 ba3d 0973 8f3e beac 553e 0de9 173e
000000a0: 9973 613d b581 253e 5328 b93d 14f4 d5bd
000000b0: bce8 cd3e e307 bf3e f3ad f23d 6417 5b3d
000000c0: e67d 0cbf f0eb 103e 595e 04bf 41a9 773e
000000d0: 3a30 01bd 16c8 34bd f562 0c3e 8e05 2e3e
000000e0: fd40 00be 691e a9be 1154 8abd 0f13 55be
000000f0: b082 363e 12f7 4e3e e731 cd3c be09 39be
00000100: 43a8 f43e cfe0 a93d a436 433e 385d c93e
00000110: ee9f 4a3e 9ac1 a5bd a951 54be 1bd6 54be
00000120: 7660 323e 49d5 093e 77da 0abb be8e 863e
00000130: 6a45 a03d d638 a03d d74f 2d3e a511 c03d
00000140: 1469 8abc a78c 673e 8de7 d03c 1675 393e
00000150: 95d0 5a3e 70cc 763e e9f2 8c3c 0ea5 78bd
00000160: 6994 bd3e f710 3ebe 0d9c fa3e 06cf 323e
00000170: 6a45 5c3e cb1c 043e d246 43be 6233 1e3e
00000180: 7ff6 b13d c949 903e 5a0b 583e 5669 853d
00000190: 890c d73c 0d89 a63e 3641 243e 29a7 493e
000001a0: 69a0 fd3d 7ea8 623e eba4 813d b714 58be
000001b0: 9201 573e 63dc 7c3e ee81 0c3e bea5 303d
000001c0: 0e85 273d d8df 553d 008f 6cbd 0cdd 343e
000001d0: 83d3 143e b14a f03c a7dd 353e 3bb2 813e
000001e0: d78d 57bd a3d0 cebd 0831 17be 3b6a 36be
000001f0: b0e7 853e 5203 993c 1f53 dfbd 21e9 80be
00000200: 5c94 bc3e bb08 9c3e f7b4 a23e 0c59 143f
00000210: 7bae a13e f652 473b 236e 8fbd 6567 eabd
00000220: 880c ec3c 3467 023e a658 b2be ff55 e93d
00000230: 1fa9 0a3e 322f 34be 92f6 a6bd cdc3 833e
00000240: 54d3 54be 5577 d63d ccb5 a7bd 6ec6 823d
00000250: 7904 0d3e a8bf 843e 236c 3ebe 5da5 553e
00000260: f498 9e3e 974d e6bd e624 6fbe 7fd5 7cbd
00000270: 58c1 253e 7e29 6e3e 8919 03be 0601 09bd
00000280: d2f9 393d d2e0 523e 65b8 153e 55d7 3d3e
00000290: c488 aabd 7dc6 813d cb55 933e 6ddf 3c3e
000002a0: 8c32 0cbe 61e0 303e df48 1f3e 182e a3bc
000002b0: fa62 653e cb5a 013f 3757 fe3d 77c9 873e
000002c0: 6209 aa3d 7509 9c3d 903b 5e3d 96fb 9e3e
000002d0: 360e 04bf 28fa 0ebc b0d8 cf3d 213f c83e
000002e0: e92d 19be a67c 85be 7876 843e 6241 14bf
000002f0: 9f50 c33e 7154 2f3e 4b4c 363e 5c69 fcbe
00000300: b54c 223f 1d18 063f 2b71 9d3d 6eaf 603d
00000310: f83f f8bb 593b 923e 85af d3be b5b8 e3bd
00000320: e767 393e b630 533e ea73 5c3d 4567 973c
00000330: 4564 083e 136b af3d 2a9d c43e 623b bdbb
00000340: ace2 a33e d03e 1d3e 1bf4 363e b982 473e
00000350: c552 6abc 971c 823e 6bce ebbe 8bd9 0a3e
00000360: 92f2 0ebd 2012 34be fc2b 193f 52fd 5e3e
00000370: c6d7 573e f1b0 1e3d d559 f63d 11ef 933d
00000380: e882 a0bb 7e6f cf3e 797a aa3d cb97 363c
00000390: 6418 cebe 35ec a03e 34bc 783e 6399 c93e
000003a0: 622b b6be 69e2 613e 2f82 453e dc19 9cbe
000003b0: 0be3 ce3e 187c 7f3e 820b e93d 1b43 adbd
000003c0: f7c6 bd3b 9030 b03d e0f2 5a3e 491e 863e
000003d0: 4c52 20bf 50f4 573e d9f3 153e 2ba0 b93e
000003e0: c557 1cbe 5449 75be bbb6 9cbe 7558 c9be
000003f0: 3ea4 27bd c061 b03d 2810 16bf 5ae4 b5bc
0.63447136 0.07373786 0.11283049 0.3596818 0.15301265 -2.9863259e-05 -0.06884697 -0.21058035
0.25963163 0.13795882 -0.4612796 0.3327059 0.121171944 0.06399014 0.04935962 0.07600713
0.020095259 0.35155252 0.1703407 0.19967483 0.11607904 0.26383927 -0.20628208 -0.13988543
0.020141896 -0.18878491 0.07347496 -0.0591816 0.15264192 0.1192575 -0.30871037 0.11991058
0.2695273 0.23173815 0.14099967 -0.020387081 0.09128141 0.28017452 0.20866677 0.14834996
0.055041883 0.1616276 0.09040894 -0.10446945 0.40216625 0.37310705 0.118495844 0.053489104
-0.54879606 0.14152503 -0.51706463 0.24185659 -0.031540133 -0.04413613 0.13709624 0.16994306
-0.12524791 -0.33031014 -0.06754316 -0.20808052 0.17823291 0.20211437 0.02504821 -0.18070123
0.47784624 0.08294832 0.19063812 0.39328933 0.19787571 -0.08093567 -0.20734276 -0.207848
0.1741961 0.13460268 -0.0021187344 0.2628078 0.0782574 0.078233406 0.16924988 0.093783654
-0.016895808 0.22612248 0.025501037 0.18111071 0.2136863 0.24101424 0.017205672 -0.060704283
0.3702729 -0.18561159 0.48947182 0.17461786 0.21510854 0.12901609 -0.19069985 0.15449288
0.086895935 0.28181294 0.2109808 0.06514232 0.026251094 0.32526436 0.16040501 0.19692673
0.123841114 0.22134587 0.06330284 -0.21101652 0.20996693 0.24693446 0.13721439 0.043126814
0.040898375 0.052215427 -0.057753563 0.17662448 0.1453381 0.02933249 0.17760335 0.25331292
-0.052625503 -0.10098388 -0.14764798 -0.17813961 0.26153326 0.018678341 -0.10904526 -0.25177863
0.3683194 0.3047541 0.3177869 0.57948375 0.3157843 0.0030414439 -0.07003429 -0.11445502
0.02881457 0.12734681 -0.34833258 0.113933556 0.13541077 -0.17596129 -0.08152498 0.25735322
-0.2078374 0.104719795 -0.08188972 0.06385504 0.13771237 0.25927472 -0.18595938 0.20863862
0.3097607 -0.11245268 -0.2335392 -0.061727043 0.16187036 0.23258016 -0.1280271 -0.03344824
0.045404263 0.20593575 0.14621122 0.18539174 -0.08326867 0.06336687 0.28776392 0.18444605
-0.13691157 0.17273094 0.15555142 -0.01991944 0.22401038 0.50529164 0.12418979 0.26520893
0.08302571 0.07618991 0.054256022 0.3105132 -0.51584184 -0.008726634 0.10148752 0.39110664
-0.1495892 -0.26071662 0.25871634 -0.57912266 0.38147447 0.17122056 0.17802541 -0.49299133
0.63398296 0.52380544 0.07687601 0.054854803 -0.007575985 0.28560904 -0.41344848 -0.111192144
0.18106042 0.2062405 0.05382148 0.01848186 0.133195 0.08565345 0.38401157 -0.0057749012
0.32008874 0.15355992 0.17866556 0.1948346 -0.01430196 0.25412437 -0.46055922 0.13559549
-0.0348993 -0.17585039 0.5983274 0.21776322 0.21078405 0.038742963 0.12028853 0.07223333
-0.0048984177 0.4051475 0.08324141 0.011144589 -0.40252984 0.31430212 0.24290544 0.39374837
-0.35579973 0.22059025 0.19287942 -0.3048848 0.40407595 0.24949682 0.11379148 -0.08460065
0.0057915407 0.086030126 0.21381712 0.2619498 -0.62625575 0.21089292 0.14643802 0.3625501
-0.15267856 -0.23953754 -0.30608162 -0.393253 -0.040928118 0.08612394 -0.586184 -0.022203613

fc3.bias f4 [4]
00000000: eff7 993e 6b4c 8c3e 3901 2e3e cac6 5b3e
0.3007197 0.27402052 0.16992654 0.21462551
